src/model_para.pkl (torch, 90095 bytes, 8 tensors)

conv1.weight f4 [10, 1, 5, 5]
0.05738777 -0.21421428 0.03338403 0.0068755276 0.30851543 0.06252088 -0.22188848 0.16725019
0.13529854 0.2504321 -0.07619919 0.23167607 0.06978181 0.21230707 0.26115444 -0.17157345
0.0481073 -0.09985196 -0.04255608 -0.09334307 0.25252962 0.09667139 0.32267866 0.069553226
0.25019857 -0.2227053 -0.50333166 -0.34111783 -0.27964038 -0.3208972 -0.038197614 -0.28271273
-0.17822857 -0.30681583 -0.64380187 0.29154688 0.17711633 0.5165433 0.5162061 -0.07416613
0.44525978 0.51310074 0.4694619 0.537426 0.26039255 -0.03682603 0.15837508 -0.13645573
0.08104185 -0.29195696 -0.1343129 -0.528005 -0.65193856 -0.55431056 -0.45196635 0.07552355
0.35587877 0.25761116 0.29156297 0.3234605 0.084902905 0.38071308 0.23529695 0.2675398
0.05665429 0.01697915 -0.022000637 -0.08007678 -0.034474045 0.07056668 0.29563546 0.04420231
-0.1798486 0.019669151 -0.35771883 -0.2396553 -0.33264318 -0.14820616 -0.049405824 -0.22737718
-0.26907766 -0.060896594 -0.11254925 0.0040551997 -0.03687745 0.22013421 0.1380309 0.114803575
-0.047673967 0.06200639 -0.089291595 -0.06818443 0.14957716 0.2330385 -0.04552647 -0.11427782
0.28547543 0.30165628 0.08179523 -0.13102758 0.055676337 -0.0112495115 -0.0070823105 -0.31375912
-0.2678077 -0.44574955 -0.42596754 -0.37306362 -0.28877866 -0.0927521 -0.13561295 -0.09131841
0.13261026 0.27785692 0.28435653 0.16969557 0.23527105 0.24795885 0.103322275 0.29711556
0.08627573 0.103292696 0.39225537 0.40072638 0.21295397 0.38853323 0.16586246 0.29491132
0.33227038 0.08848915 0.16949505 0.007755849 0.0905124 -0.087983 0.15085907 0.28180355
0.23753698 0.06083172 0.3252834 0.3782061 -0.30722395 -0.2924188 -0.212882 0.23286766
-0.07491098 -0.16476311 -0.33394173 -0.32724038 0.13912395 0.06722598 -0.34200588 -0.24537104
-0.2948188 0.011699376 0.1487192 -0.18428303 -0.283562 0.22295615 0.29709798 0.04816651
-0.35641792 0.04627621 -0.07223736 -0.013541924 -0.078052305 -0.3754409 -0.28021353 0.22896867
0.18583867 0.36709154 -0.36751473 -0.07770583 0.30199525 0.17673327 0.3749154 0.04648563
-0.31460574 -0.20390432 -0.36934227 -0.46148208 -0.24825129 -0.13842003 0.024948483 -0.20286292
-0.2652896 0.1742479 0.12609912 0.39191043 0.2210336 0.10784857 0.18712369 0.029966444
0.2814331 0.35137475 -0.047152247 0.15325993 -0.14434792 0.19509958 -0.20248581 -0.14568119
0.09709926 0.34727243 -0.065707184 0.032489296 -0.057821132 0.18586603 0.09061146 -0.21161896
-0.2909229 -0.4448479 0.29326662 -0.034022044 -0.25628293 -0.26164582 -0.45643947 0.23551367
0.13268916 -0.14883974 -0.5176439 -0.32510263 0.28662485 -0.032300193 -0.18251301 -0.118034095
-0.17473504 -0.061797697 -0.25077248 -0.3357416 -0.28097492 -0.45485818 -0.000689776 0.13891657
-0.10751724 -0.28897983 -0.111015745 0.3654157 0.4137759 0.16586366 0.30342475 0.26978818
0.38552764 0.3452965 0.033279754 -0.031321213 0.024525959 -0.091909714 -0.043949414 -0.14414336
0.09818355 -0.2468673
00000000: 700f 6b3d fd5a 5bbe b1bd 083d 1b4c e13b
00000010: bcf5 9d3e f20a 803d bc36 63be a243 2b3e
00000020: b38b 0a3e a338 803e 520e 9cbd 7e3c 6d3e
00000030: c4e9 8e3d 0667 593e 09b6 853e f3b0 2fbe
00000040: 290c 453d 2f7f ccbd 494f 2ebd a72a bfbd
00000050: 904b 813e a6fb c53d 2336 a53e ec71 8e3d
00000060: 071a 803e dc0c 64be 58da 00bf ffa6 aebe
00000070: 062d 8fbe a34c a4be 1a75 1cbd b9bf 90be
00000080: 8d81 36be f716 9dbe 33d0 24bf a245 953e
00000090: fc5d 353e 2f3c 043f 1526 043f 69e4 97bd
000000a0: 17f9 e33e 925a 033f 4f5d f03e c094 093f
000000b0: 2c52 853e e4d6 16bd 142d 223e 0dbb 0bbe
000000c0: 45f9 a53d 627b 95be 5289 09be 562b 07bf
000000d0: 72e5 26bf 4ce7 0dbf 2268 e7be 17ac 9a3d
000000e0: be35 b63e 9ce5 833e be47 953e 9d9c a53e
000000f0: 93e1 ad3d d3ec c23e aff1 703e fafa 883e
00000100: 540e 683d dc17 8b3c ae3a b4bc 4bff a3bd
00000110: a834 0dbd 4385 903d 885d 973e 7b0d 353d
00000120: 3b2a 38be 3321 a13c ec26 b7be 3368 75be
00000130: 3550 aabe 5bc3 17be c35d 4abd 90d5 68be
00000140: 8cc4 89be b56e 79bd 3980 e6bd 7be1 843b
00000150: cf0c 17bd dd6a 613e f957 0d3e 231e eb3d
00000160: c745 43bd 6afa 7d3d 83de b6bd 47a4 8bbd
00000170: c12a 193e a5a1 6e3e f779 3abd 7d0a eabd
00000180: d629 923e b172 9a3e 4284 a73d 182c 06be
00000190: df0c 643d df4f 38bc ba12 e8bb 09a5 a0be
000001a0: 171e 89be 4939 e4be 6b18 dabe 3202 bfbe
000001b0: ccda 93be d0f4 bdbd 1fde 0abe 2605 bbbd
000001c0: fcca 073e 4343 8e3e 2e97 913e adc4 2d3e
000001d0: e5ea 703e ede8 7d3e a19a d33d 881f 983e
000001e0: 54b1 b03d 1f8b d33d b2d5 c83e 022c cd3e
000001f0: 9b10 5a3e d4ed c63e d9d7 293e 9efe 963e
00000200: 581f aa3e cd39 b53d 1c90 2d3e c724 fe3b
00000210: 915e b93d 6e30 b4bd cd7a 1a3e 8e48 903e
00000220: e53c 733e ae2a 793d 8c8b a63e 3ba4 c13e
00000230: 754c 9dbe ebb7 95be bdfd 59be dc74 6e3e
00000240: ee6a 99bd a9b7 28be 69fa aabe 0d8c a7be
00000250: 8276 0e3e c6ad 893d 651b afbe 8c42 7bbe
00000260: 7df2 96be bdae 3f3c d949 183e b1b4 3cbe
00000270: 0a2f 91be 9e4e 643e 3a1d 983e 3f4a 453d
00000280: 697c b6be 208c 3d3d 2ef1 93bd f2de 5dbc
00000290: e3d9 9fbd ca39 c0be 2678 8fbe c376 6a3e
000002a0: 7e4c 3e3e 6cf3 bb3e e42a bcbe 3c24 9fbd
000002b0: 1f9f 9a3e 91f9 343e e9f4 bf3e b767 3e3d
000002c0: 0114 a1be 4bcc 50be 6e1a bdbe 6147 ecbe
000002d0: 9635 7ebe fbbd 0dbe c360 cc3c 4cbb 4fbe
000002e0: 0ad4 87be 0b6e 323e 2120 013e 7ca8 c83e
000002f0: a256 623e b6df dc3d 5a9d 3f3e 307c f53c
00000300: 0018 903e 64e7 b33e b722 41bd 2cf0 1c3e
00000310: f1cf 13be 2fc8 473e 7158 4fbe 732d 15be
00000320: fadb c63d b1cd b13e 7d91 86bd 7f13 053d
00000330: dad5 6cbd aa53 3e3e 8092 b93d a4b2 58be
00000340: d9f3 94be 1bc3 e3be 0b27 963e b35a 0bbd
00000350: 8437 83be 71f6 85be 6fb2 e9be 7f2a 713e
00000360: abdf 073e 7269 18be 5084 04bf da73 a6be
00000370: 7ec0 923e 354d 04bd b1e4 3abe dcbb f1bd
00000380: beed 32be 951f 7dbd 4065 80be 53e6 abbe
00000390: f2db 8fbe 2ce3 e8be 15d2 34ba 2540 0e3e
000003a0: 0032 dcbd 2af5 93be 395c e3bd c417 bb3e
000003b0: 6fda d33e 2ad8 293e 7d5a 9b3e ad21 8a3e
000003c0: e163 c53e b4ca b03e 5a50 083d ac4a 00bd
000003d0: aaea c83c 293b bcbd 4d04 34bd 519a 13be
000003e0: 7514 c93d c8ca 7cbe

conv1.bias f4 [10]
-0.22616735 -0.059611868 -0.22339988 -0.120123416 -0.26975375 -0.31199437 0.005860491 -0.4296041
-0.4934079 0.028858732
00000000: 6a98 67be 932b 74bd f0c2 64be 4403 f6bd
00000010: 2a1d 8abe babd 9fbe 5d09 c03b 12f5 dbbe
00000020: f69f fcbe 2669 ec3c

conv2.weight f4 [20, 10, 5, 5]
0.040778138 0.008073576 -0.04620285 -0.057903603 -0.09978289 -0.036617108 -0.050008498 -0.0823603
-0.020262256 -0.015504047 0.012284642 0.025942335 -0.04027295 -0.09024348 0.0115188435 -0.02933015
-0.034237977 -0.09438198 -0.107133314 -0.0014033908 0.08421857 -0.04321625 -0.03141274 0.035571698
-0.014444718 0.12826473 0.1910771 0.20182954 0.13398926 0.031192502 -0.06325756 0.007407023
0.040400974 -0.022255287 -0.17758581 -0.11237533 -0.08801792 -0.08712236 -0.005124925 0.020529984
0.17968689 0.15136115 -0.022556012 -0.19478765 0.0087507535 0.10258558 0.034123704 -0.03627626
-0.04557372 0.015927458 0.03943283 0.08401333 0.10660858 0.005615039 0.036409438 0.08863133
-0.011025341 0.00654959 0.010405898 -0.052969594 -0.03900908 -0.098818034 -0.07252977 0.0457564
0.027798487 -0.014522093 0.045388438 -0.056116667 -0.109373696 0.07306024 -0.066767044 0.058565993
-0.021033395 -0.04902832 -0.079388 0.10156472 0.07547065 0.015220891 -0.025458962 -0.08397441
0.00022848872 0.011219675 2.574008e-05 -0.02693209 -0.08300591 0.014257506 0.043020874 0.01859779
-0.008515444 -0.09786713 0.0784697 -0.022233762 0.012148546 -0.046684876 -0.032644536 0.035134483
0.024118422 -0.08462245 -0.117261216 -0.10567979 0.056840885 0.07315038 0.0034748563 -0.1351449
-0.02896935 -0.020248339 -0.04574596 0.011686819 -0.029674178 -0.0801874 0.09124538 -0.07428209
-0.07969219 -0.06072717 -0.010193333 0.11583311 0.04061025 -0.04738963 -0.12647791 -0.005749717
0.18521622 0.0964348 -0.023877785 -0.07272076 -0.11892053 -0.14073555 -0.048318118 -0.09131585
-0.054480832 -0.057207786 0.09724207 0.18325715 0.100066185 -0.044240475 -0.0114439335 0.1074699
-0.018841475 -0.060270317 -0.0810283 -0.031837624 0.11121057 0.06082377 -0.060779523 -0.048720263
-0.12616919 -0.08125782 0.014120821 -0.073613726 -0.047511127 -0.062358435 -0.107697584 -0.07976114
0.116929315 -0.036124453 -0.0004666198 0.03882293 -0.025654366 0.09661805 -0.044691056 0.06716254
0.15259889 -0.05488374 -0.02963954 -0.07741887 -0.033085376 0.17387107 -0.13641271 0.05099613
-0.06271897 -0.018011304 0.106284805 -0.13844986 -0.07845724 -0.071926385 0.08049354 0.01263053
0.14357857 0.175878 0.09165859 0.0023788847 -0.008994148 0.07238615 -0.021770503 0.006068283
-0.021674484 -0.045067035 0.008504471 0.0314304 0.0172707 -0.029431364 -0.069251195 -0.02844963
-0.09920224 -0.022699086 -0.011992583 0.051947366 -0.03570365 -0.038742196 -0.045802616 -0.048420876
0.15572199 0.12502168 0.034594722 -0.022021841 -0.08244161 0.046484597 0.007807672 0.031045934
0.011020148 -0.034502782 0.009825593 -0.0027979969 -0.07891225 -0.08164675 -0.100906186 -0.09288271
-0.14894861 -0.1191518 -0.11946755 -0.26524082 -0.059434704 0.0027756703 -0.124359585 -0.16701758
-0.16935807 0.08935227 0.111739896 0.10178362 0.12638205 0.0071979007 -0.016722985 -0.0030643719
-0.049378343 0.005740391 -0.056511577 -0.038439352 -0.044394046 -0.05312268 -0.06460514 -0.04969417
0.031583793 0.09536608 -0.012219066 -0.02807829 0.026992472 0.020354802 0.028977772 -0.0031995284
-0.04248683 0.039091956 -0.119673714 -0.06158701 -0.05476514 -0.008769982 -0.06693501 -0.060039338
00000000: fa06 273d 0847 043c 333f 3dbd 542c 6dbd
00000010: f95a ccbd d2fb 15bd b6d5 4cbd 84ac a8bd
00000020: 08fd a5bc b004 7ebc 8645 493c 0585 d43c
00000030: 40f5 24bd 93d1 b8bd 88b9 3c3c c845 f0bc
00000040: 1f3d 0cbd 574b c1bd b668 dbbd fbf1 b7ba
00000050: c97a ac3d 8603 31bd a5aa 00bd a1b3 113d
00000060: 8aa9 6cbc d457 033e b7a9 433e 67ac 4e3e
00000070: 7b34 093e 6b87 ff3c 2e8d 81bd 9db6 f23b
00000080: 7e7b 253d b850 b6bc 0ed9 35be 0925 e6bd
00000090: bd42 b4bd 356d b2bd fdee a7bb 7f2e a83c
000000a0: d7ff 373e 6bfe 1a3e 63c7 b8bc 6a76 47be
000000b0: 525f 0f3c 6318 d23d 4cc5 0b3d 6a96 14bd
000000c0: 82ab 3abd 4d7a 823c 5284 213d 2e0f ac3d
000000d0: 9955 da3d 5cfe b73b 1022 153d 5884 b53d
000000e0: a2a3 34bc f19d d63b 807d 2a3c a5f6 58bd
000000f0: fcc7 1fbd 1c61 cabd 7d8a 94bd 106b 3b3d
00000100: a7b9 e33c 13ee 6dbc 3ae9 393d 97da 65bd
00000110: 51ff dfbd 9ba0 953d 29bd 88bd e5e2 6f3d
00000120: 3a4e acbc ebd1 48bd 2d96 a2bd 2a01 d03d
00000130: 5b90 9a3d 0b61 793c 508f d0bc c7fa abbd
00000140: 7996 6f39 bad2 373c 67ec d737 b0a0 dcbc
00000150: 01ff a9bd 5098 693c a836 303d 645a 983c
00000160: 5c84 0bbc 906e c8bd b9b4 a03d 9423 b6bc
00000170: b20a 473c a438 3fbd 47b6 05bd 2de9 0f3d
00000180: ff93 c53c 894e adbd a626 f0bd a56e d8bd
00000190: fdd1 683d decf 953d 6aba 633b 6d63 0abe
000001a0: 2151 edbc d8df a5bc 1e60 3bbd 127a 3f3c
000001b0: 4317 f3bc 4b39 a4bd dcde ba3d 3521 98bd
000001c0: a935 a3bd 0ebd 78bd f001 27bc e939 ed3d
000001d0: ef56 263d a11b 42bd 6d83 01be 1f68 bcbb
000001e0: 52a9 3d3e 9c7f c53d 589b c3bc 9fee 94bd
000001f0: 9b8c f3bd fb1c 10be 38e9 45bd ce03 bbbd
00000200: 4b27 5fbd b652 6abd da26 c73d c3a7 3b3e
00000210: 80ef cc3d 8035 35bd 567f 3bbc 2e19 dc3d
00000220: 7059 9abc 02de 76bd 2af2 a5bd 2b68 02bd
00000230: 5ec2 e33d 5822 793d f3f3 78bd e68e 47bd
00000240: 7f32 01be 806a a6bd 045b 673c cbc2 96bd
00000250: 079b 42bd 8f6b 7fbd 8d90 dcbd cf59 a3bd
00000260: a378 ef3d 3cf7 13bd a6a4 f4b9 cb04 1f3d
00000270: 1b29 d2bc afdf c53d f80d 37bd 848c 893d
00000280: e242 1c3e c6cd 60bd 9fce f2bc c98d 9ebd
00000290: 8884 07bd 420b 323e c6af 0bbe 51e1 503d
000002a0: ce72 80bd 718c 93bc d9ab d93d cdc5 0dbe
000002b0: 30ae a0bd 244e 93bd ccd9 a43d 48f0 4e3c
000002c0: 4306 133e 5d19 343e 80b7 bb3d 10e7 1b3b
000002d0: 315c 13bc 313f 943d 0e58 b2bc 73d8 c63b
000002e0: b08e b1bc 3698 38bd 5656 0b3c 2abd 003d
000002f0: 487b 8d3c 0b1a f1bc 92d3 8dbd 330f e9bc
00000300: 8b2a cbbd 6ff3 b9bc 8a7c 44bc c3c6 543d
00000310: fe3d 12bd 23b0 1ebd 869b 3bbd f854 46bd
00000320: 9675 1f3e af05 003e 32b3 0d3d 2667 b4bc
00000330: 26d7 a8bd a266 3e3d 80d7 ff3b 0b54 fe3c
00000340: da8d 343c ca52 0dbd 86fb 203c 995e 37bb
00000350: bf9c a1bd 6936 a7bd e7a7 cebd 4a39 bebd
00000360: fc85 18be dc05 f4bd 67ab f4bd a5cd 87be
00000370: ce71 73bd 05e8 353b 3db0 febd a806 2bbe
00000380: 346c 2dbe 53fe b63d e3d7 e43d ee73 d03d
00000390: 4c6a 013e 5edc eb3b a4fe 88bc a1d3 48bb
000003a0: f240 4abd e419 bc3b af78 67bd 9572 1dbd
000003b0: 88d6 35bd 2b97 59bd b34f 84bd 1d8c 4bbd
000003c0: 025e 013d 4b4f c33d 7a32 48bc 7104 e6bc
000003d0: 511f dd3c 1dbf a63c cb62 ed3c 2eaf 51bb
000003e0: ac06 2ebd e31e 203d 7e17 f5bd a942 7cbd
000003f0: 6951 60bd f8af 0fbc 3915 89bd cfeb 75bd

conv2.bias f4 [20]
0.011447493 -0.3039097 -0.0697343 0.017320184 -0.15048394 -0.046945542 -0.015404572 -0.1644749
-0.2041334 -0.07185404 0.020141086 0.07535298 -0.11030959 -0.054260857 -0.012094378 -0.21116817
-0.032878708 0.042632535 0.24166436 -0.061417952
00000000: 448e 3b3c 0d9a 9bbe dbd0 8ebd 0fe3 8d3c
00000010: 7618 1abe f849 40bd 7563 7cbc 1c6c 28be
00000020: 5908 51be 3628 93bd ebfe a43c aa52 9a3d
00000030: ffe9 e1bd a240 5ebd 7f27 46bc 783c 58be
00000040: d3ab 06bd 749f 2e3d dd76 773e 6491 7bbd

fc1.weight f4 [50, 320]
-0.010150521 0.003742935 0.12221474 0.03471477 -0.056727443 -0.08490809 -0.040053863 0.054255668
-0.05910339 -0.00802199 -0.06892969 -0.07867158 -0.061632417 0.0034220393 0.009257074 -0.0876026
-0.022431586 0.056716297 -0.022654122 0.008511424 0.026008407 -0.06104681 -0.05214114 -0.025631474
-0.0405841 -0.017520046 -0.027137661 -0.06988305 0.08927282 0.09535046 0.0009662875 -0.09084982
-0.0605829 0.016542275 -0.0077962256 -0.01606893 -0.046833392 0.088627785 0.028936416 0.0068675415
0.018832577 0.029804535 0.06736526 -0.052553795 0.04761463 0.029444505 -0.027981386 -0.04125495
-0.08754791 0.0031817316 0.024658555 -0.04907936 -0.04100743 -0.027037213 -0.021817196 -0.03893845
0.022059029 0.077318594 0.046815548 -0.009217561 -0.02421663 0.020699171 -0.006573712 -0.07635311
-0.06139407 -0.104482494 -0.030669114 6.130391e-05 -1.4847175e-05 -0.04228976 0.033471487 -0.07710537
-0.061091855 -0.038368296 -0.032930624 -0.007807049 -0.0514388 -0.007468991 0.024310801 0.0025574283
-0.019398862 0.030213246 -0.026641307 -0.030523775 -0.04592138 0.006559552 0.022768464 -0.05140232
-0.014020098 0.018569272 -0.04653644 -0.05701092 0.008585916 0.02596383 0.00836427 -0.0010045711
0.114590615 0.14517602 0.044899356 -0.07665145 -0.04224387 0.121913984 -0.07899709 -0.09135044
0.05250501 0.043219686 0.04719828 0.054315466 -0.011730872 0.0381874 -0.03923955 -5.3267428e-05
0.1263865 0.1258077 0.066622436 -0.057207365 -0.02687751 0.10203914 0.123199604 -0.025284894
-0.037585285 0.09348538 -0.051714588 -0.053911548 -0.017892411 -0.017656252 -0.009295745 -0.008680401
0.023894893 -0.075913295 0.015346825 -0.023196094 0.0012579578 0.001012409 0.0017336167 0.05644773
-0.09223757 -0.05147011 -0.02126448 -0.030472953 0.034102987 0.027716853 0.041683257 -0.0478863
0.088500224 -0.059176523 0.01623192 0.011959725 0.035249263 0.020790555 0.019276513 -0.05549043
-0.008187306 0.029090663 -0.070375375 -0.085182406 -0.054540608 -0.09306296 -0.016366575 -0.04063959
-0.08612982 0.048423972 -0.026996 0.066433 0.04489845 0.03983153 -0.03757134 0.049335774
-0.04052882 0.01808799 -0.050953146 -0.0053348853 -0.035678636 -0.020586891 -0.0916146 -0.0011854994
-0.09581614 -0.058845047 0.027429981 0.015969967 -0.033132065 -0.07655391 0.021609996 0.13449568
-0.04010508 -0.012567554 -0.06887007 0.053462755 0.03487849 -0.07183133 0.018479891 0.004827228
-0.039828394 0.044343732 0.025457803 -0.087862745 0.010416303 0.037211515 -0.047032185 0.06292764
0.039139073 -0.05396008 0.024932696 -0.06458035 0.11246145 -0.055207618 0.037962265 -0.004107182
0.0009243325 -0.08263893 -0.017137432 -0.03460993 0.055449955 0.09290854 0.053086534 -0.0249353
0.026944287 0.14172447 -0.02322722 0.0195028 0.026809301 0.06610007 -0.06625615 -0.040295083
-0.10845835 0.06945673 0.03320044 0.1340482 0.051941443 -0.074732564 -0.0058270562 0.115636036
0.023486296 -0.0024665778 -0.0672051 -0.037413992 -0.0059196698 0.037828717 -0.03438672 -0.017732326
0.05926444 0.017637016 -0.04473262 0.07441962 0.008558951 -0.06409691 -0.04154358 0.047281135
-0.0070260977 -0.0583758 -0.054115478 0.01882427 -0.024593893 0.037660774 -0.024986114 -0.030813197
00000000: 5f4e 26bc 074c 753b b94b fa3d 1331 0e3d
00000010: 095b 68bd 4be4 adbd 850f 24bd 313b 5e3d
00000020: 6516 72bd aa6e 03bc 022b 8dbd 911e a1bd
00000030: 4672 7cbd 4b44 603b fcaa 173c fe68 b3bd
00000040: 72c2 b7bc 594f 683d 2395 b9bc 8073 0b3c
00000050: 950f d53c 380c 7abd f391 55bd 19f9 d1bc
00000060: 833b 26bd 3386 8fbc cd4f debc d81e 8fbd
00000070: abd4 b63d 1a47 c33d 754e 7d3a 780f babd
00000080: c625 78bd aa83 873c 7b77 ffbb fda2 83bc
00000090: 5fd4 3fbd 7c82 b53d 100c ed3c 1d09 e13b
000000a0: c746 9a3c a428 f43c ccf6 893d a642 57bd
000000b0: 8f07 433d 9a35 f13c 3839 e5bc f3fa 28bd
000000c0: 524c b3bd 9984 503b bd00 ca3c 7007 49bd
000000d0: 68f7 27bd 257d ddbc fab9 b2bc ed7d 1fbd
000000e0: 23b5 b43c 3659 9e3d a9c1 3f3d 4105 17bc
000000f0: f461 c6bc 4f91 a93c 4b68 d7bb 055f 9cbd
00000100: 5978 7bbd ebfa d5bd cb3d fbbc 4990 8038
00000110: 2218 79b7 0738 2dbd 6619 093d 6ce9 9dbd
00000120: 743b 7abd 1328 1dbd 43e2 06bd 46d2 ffbb
00000130: 7eb1 52bd 70be f4bb 7227 c73c 879a 273b
00000140: 5dea 9ebc c581 f73c df3e dabc ff0c fabc
00000150: 0f18 3cbd 83f1 d63b ee84 ba3c 3d8b 52bd
00000160: 8eb4 65bc 961e 983c fe9c 3ebd 4884 69bd
00000170: f1ab 0c3c 19b2 d43c 4b0a 093c d0ab 83ba
00000180: 7cae ea3d 06a9 143e 63e8 373d 6ffb 9cbd
00000190: e907 2dbd 0aae f93d 3ac9 a1bd f115 bbbd
000001a0: 7e0f 573d 2007 313d fc52 413d e579 5e3d
000001b0: d832 40bc 646a 1c3d a6b9 20bd 776b 5fb8
000001c0: 766b 013e bcd3 003e 5871 883d 4552 6abd
000001d0: 392e dcbc e6f9 d03d 1350 fc3d 4422 cfbc
000001e0: 07f3 19bd 4375 bf3d add2 53bd 5bd2 5cbd
000001f0: 1b93 92bc d8a3 90bc 2e4d 18bc 3e38 0ebc
00000200: 39bf c33c 6e78 9bbd 4071 7b3c bc05 bebc
00000210: 0fe2 a43a cfb2 843a 863a e33a bc35 673d
00000220: 0de7 bcbd 52d2 52bd d932 aebc 6aa2 f9bc
00000230: 93af 0b3d 740e e33c 10bc 2a3d 6d24 44bd
00000240: 9b3f b53d 1563 72bd cef8 843c b9f2 433c
00000250: 8861 103d f450 aa3c c7e9 9d3c ef49 63bd
00000260: 0d24 06bc 8b4f ee3c f720 90bd 1d74 aebd
00000270: f965 5fbd cb97 bebd 3213 86bc b375 26bd
00000280: d564 b0bd 3758 463d b726 ddbc 060e 883d
00000290: 70e7 373d 6326 233d 68e4 19bd 4f14 4a3d
000002a0: 8c01 26bd 442d 943c 3fb4 50bd 43d0 aebb
000002b0: c323 12bd d7a5 a8bc 6fa0 bbbd c262 9bba
000002c0: 413b c4bd 8107 71bd d7b4 e03c 73d3 823c
000002d0: 7db5 07bd 4cc8 9cbd 7207 b13c 3cb9 093e
000002e0: 3945 24bd 24e8 4dbc c00b 8dbd c3fb 5a3d
000002f0: bfdc 0e3d 4e1c 93bd 2463 973c b92d 9e3b
00000300: 1923 23bd c6a1 353d e28c d03c 62f1 b3bd
00000310: 24a9 2a3c 1a6b 183d d2a4 40bd 35e0 803d
00000320: 4b50 203d 3f05 5dbd a73f cc3c b442 84bd
00000330: 3052 e63d 6221 62bd 527e 1b3d 8a95 86bb
00000340: e74e 723a 993e a9bd cd63 8cbc 24c3 0dbd
00000350: 7e1f 633d d546 be3d 4471 593d 1d45 ccbc
00000360: 44ba dc3c 3820 113e 0347 bebc 56c4 9f3c
00000370: 2e9f db3c 795f 873d 4eb1 87bd 750c 25bd
00000380: 691f debd 543f 8e3d 2ffd 073d ee43 093e
00000390: 8dc0 543d 630d 99bd e4f0 bebb 96d2 ec3d
000003a0: 5566 c03c 4fa6 21bb d4a2 89bd 6a3f 19bd
000003b0: caf9 c1bb 49f2 1a3d 17d9 0cbd 6243 91bc
000003c0: 45bf 723d 817b 903c 8d39 37bd 5069 983d
000003d0: d83a 0c3c 3e45 83bd 9a29 2abd dda9 413d
000003e0: 2e3b e6bb 761b 6fbd 31a8 5dbd 5b35 9a3c
000003f0: 2279 c9bc 2f42 1a3d aeaf ccbc f56b fcbc

fc1.bias f4 [50]
0.1794255 0.2641888 0.2266508 0.10542197 0.14965677 0.28399608 0.1681837 0.12658133
0.05928202 0.17444302 0.19813965 0.23816536 -0.025592348 0.30347237 0.35473755 -0.027576769
0.0036702019 0.34997815 0.3123194 0.33424407 -0.08628737 0.19798882 -0.0072131744 0.23092704
0.34608343 0.031196358 0.32714677 0.21201658 0.35535404 0.23606484 0.41127792 0.17165126
0.16376325 -0.011345562 0.13595156 0.12025641 0.15383539 -0.0060417484 0.15232636 0.083740115
-0.07483988 0.1105553 -0.07683345 -0.07441399 0.17831141 0.30750307 0.24348016 0.25397065
0.22848901 0.15217838
00000000: 51bb 373e c143 873e 2617 683e 79e7 d73d
00000010: a03f 193e ef67 913e 5938 2c3e 899e 013e
00000020: b4d1 723d 31a1 323e 1fe5 4a3e 9fe1 733e
00000030: 0ba7 d1bc bb60 9b3e 29a0 b53e ade8 e1bc
00000040: c587 703b 5630 b33e 54e8 9f3e 0a22 ab3e
00000050: 6fb7 b0bd 95bd 4a3e 7e5c ecbb 2378 6c3e
00000060: d931 b13e 818f ff3c c87f a73e e01a 593e
00000070: f7f0 b53e fbba 713e 0593 d23e 59c5 2f3e
00000080: 8eb1 273e bce2 39bc e336 0b3e fe48 f63d
00000090: 0687 1d3e dcf9 c5bb 71fb 1b3e f07f ab3d
000000a0: a745 99bd d16a e23d db5a 9dbd 5d66 98bd
000000b0: 4497 363e 0b71 9d3e dd52 793e 7108 823e
000000c0: 06f9 693e a6d4 1b3e

fc2.weight f4 [10, 50]
0.3224479 0.5152047 0.37233466 -0.23338373 -0.22914277 0.5067439 -0.14416036 0.2745488
0.15699857 0.17984882 -0.15180707 0.5530999 -0.16510572 0.5203815 0.57537764 0.12338204
-0.09266004 0.48247132 0.5563971 0.48511127 -0.14828572 0.3663207 -0.3323558 -0.119830616
0.57042176 -0.07197652 0.5263872 0.44607228 0.5829192 0.55175227 0.48910552 0.4007701
0.2709077 -0.19624528 -0.18897128 0.28365067 -0.13893299 -0.05458841 0.28483292 0.18999268
0.08091618 -0.23543511 -0.14602302 0.024455365 0.3859565 0.57483625 -0.23610188 0.49567863
0.4224318 0.46061 -0.2855352 0.5016571 -0.20609069 0.4521022 0.47658074 0.5032227
0.5550006 -0.19442217 -0.043703537 0.1502837 0.50656533 0.006459302 -0.026559858 0.5199351
0.62175775 -0.08905929 -0.09603059 0.5295593 0.50639224 0.54549277 0.068526275 -0.13282174
0.27481025 0.61412185 0.5935502 0.47337642 0.53291714 0.5377437 0.49968374 -0.17863202
0.56823707 -0.18706866 -0.20349124 0.12175852 0.44932765 0.37758753 0.6040386 0.5188209
-0.10648087 -0.06989528 -0.11470275 0.58451635 0.18890776 0.116802715 -0.19029552 0.4933466
0.6541812 -0.016085854 -0.15743697 -0.21554439 0.08190844 0.015983516 -0.03317238 -0.15095396
0.008240886 -0.2032644 -0.034566727 0.047687568 0.06496139 -0.15507388 -0.032313228 -0.020352937
-0.055744406 -0.20710912 -0.21215682 0.066070706 -0.1002204 -0.09758831 -0.16373296 -0.09548845
0.11807132 -0.11092986 0.12098508 -0.14701067 -0.229283 0.05767694 -0.026871243 -0.09382056
-0.22740462 -0.051091604 -0.25486588 -0.058728978 0.06944618 0.11856412 -0.1178175 0.043232463
0.079774596 -0.054172505 0.109451465 0.12140356 0.12298169 -0.0014074199 0.0041218703 0.09009966
-0.015710434 -0.22502683 -0.10531314 -0.05845415 -0.020346703 0.054637205 -0.11723959 -0.20056543
-0.017253112 -0.07421371 -0.016276836 -0.14940614 -0.16445103 -0.10326995 -0.00809891 -0.17458041
0.09170638 -0.011905928 -0.019702796 -0.096744455 -0.22376645 -0.031429514 0.058058955 -0.18560693
-0.12294152 -0.17662556 0.03507581 -0.006562179 0.09141735 -0.049609467 -0.16169116 0.078855895
-0.2229191 0.0054082978 -0.02865853 -0.11401335 -0.10286204 -0.03407707 0.124325104 0.011560579
-0.10960774 -0.17763463 0.0067779757 -0.17200206 -0.13768092 0.035517797 0.06818391 -0.17051403
0.07442236 0.017352268 -0.034797173 -0.16277488 0.045792386 -0.0696083 -0.019149646 -0.05257284
-0.09264037 -0.117552504 -0.09587217 0.055160448 -0.004230967 -0.1346104 0.08282065 0.109067746
-0.012004137 -0.067766465 -0.10809969 -0.066274434 -0.07898715 -0.07202805 -0.21715912 -0.025633719
0.029399423 -0.19799322 -0.22794163 -0.15613358 0.038630173 -0.0186413 -0.058610655 -0.13704668
-0.17362364 -0.029358434 0.0072280704 -0.1260686 -0.10968787 -0.03129312 -0.22698326 -0.03535234
0.04402277 -0.013690033 0.053292193 0.056371097 -0.15301691 -0.09322827 0.027984042 -0.10701888
-0.13256985 -0.0902355 -0.14502032 0.10347408 0.02459301 -0.04361381 0.001557946 0.07853689
-0.02077663 -0.1408019 -0.13490976 -0.04740529 0.06788745 0.018106597 0.022996534 -0.19790517
00000000: e417 a53e 75e4 033f a6a2 be3e 25fc 6ebe
00000010: 67a4 6abe f8b9 013f c69e 13be a991 8c3e
00000020: 3cc4 203e 4a2a 383e 5073 1bbe f497 0d3f
00000030: 7911 29be b937 053f f34b 133f b9af fc3d
00000040: 8cc4 bdbd 7b06 f73e 0a70 0e3f 8160 f83e
00000050: 36d8 17be 638e bb3e 8a2a aabe c169 f5bd
00000060: 2907 123f 6d68 93bd 50c1 063f 9663 e43e
00000070: 313a 153f a33f 0d3f 0a6c fa3e bd31 cd3e
00000080: 6ab4 8a3e 86f4 48be b081 41be a93a 913e
00000090: 7344 0ebe 1998 5fbd 9fd5 913e 718d 423e
000000a0: 62b7 a53d e715 71be 0f87 15be 9e56 c83c
000000b0: 179c c53e 7828 133f b1c4 71be 97c9 fd3e
000000c0: fb48 d83e 13d5 eb3e ab31 92be 9a6c 003f
000000d0: 7009 53be f179 e73e 6402 f43e 34d3 003f
000000e0: 8514 0e3f 9b16 47be 7b02 33bd f8e3 193e
000000f0: 44ae 013f 8da8 d33b 0f94 d9bc 771a 053f
00000100: 842b 1f3f b864 b6bd b0ab c4bd 3391 073f
00000110: eca2 013f 6aa5 0b3f 8157 8c3d 6c02 08be
00000120: eeb3 8c3e 1737 1d3f e8f2 173f 655e f23e
00000130: 426d 083f 92a9 093f 8cd6 ff3e 50eb 36be
00000140: fc77 113f ed8e 3fbe 0260 50be 885c f93d
00000150: 460e e63e 2753 c13e 46a2 1a3f 72d1 043f
00000160: a412 dabd 4225 8fbd 47e9 eabd dda2 153f
00000170: 0971 413e 4336 ef3d d4dc 42be ed97 fc3e
00000180: 6b78 273f 7bc6 83bc 2837 21be abb7 5cbe
00000190: 9dbf a73d ddef 823c c3df 07bd ad93 1abe
000001a0: c804 073c 8b24 50be d795 0dbd 0a54 433d
000001b0: 7a0a 853d b0cb 1ebe e05a 04bd 34bb a6bc
000001c0: 3f54 64bd 6a14 54be a33f 59be 1450 873d
000001d0: 5a40 cdbd 61dc c7bd 9da9 27be 738f c3bd
000001e0: 60cf f13d 322f e3bd 07c7 f73d f789 16be
000001f0: 2ac9 6abe a83e 6c3d 1521 dcbc fe24 c0bd
00000200: c2dc 68be 6e45 51bd c87d 82be cc8d 70bd
00000210: cc39 8e3d bfd1 f23d 4d4a f1bd 8614 313d
00000220: dd60 a33d fde3 5dbd 1728 e03d 6ea2 f83d
00000230: d3dd fb3d 2d79 b8ba c110 873b 2c86 b83d
00000240: 2bb3 80bc 6f6d 66be 6aae d7bd 9e6d 6fbd
00000250: 21ae a6bc 43cb 5f3d 4f1b f0bd 0661 4dbe
00000260: 6656 8dbc 5cfd 97bd 0057 85bc ecfd 18be
00000270: da65 28be 327f d3bd 4ab1 04bc 35c5 32be
00000280: 8ed0 bb3d 1511 43bc c267 a1bc f521 c6bd
00000290: 0823 65be 3cbc 00bd 3acf 6d3d be0f 3ebe
000002a0: c3c8 fbbd 55dd 34be a7ab 0f3d 8c07 d7bb
000002b0: 0539 bb3d 4c33 4bbd 5e92 25be 337f a13d
000002c0: e844 64be 1738 b13b 4bc5 eabc d57f e9bd
000002d0: 55a9 d2bd 6694 0bbd 299e fe3d 9568 3d3c
000002e0: 067a e0bd dae5 35be c819 de3b 4f21 30be
000002f0: 3afc 0cbe 1c7b 113d 01a4 8b3d 3b9b 2ebe
00000300: c06a 983d 5826 8e3c 7b87 0ebd 75ae 26be
00000310: cc90 3b3d cc8e 8ebd b8df 9cbc 9e56 57bd
00000320: 3cba bdbd 5ebf f0bd a158 c4bd ecef 613d
00000330: eca3 8abb 4fd7 09be df9d a93d e95e df3d
00000340: 00ad 44bc 25c9 8abd 5f63 ddbd e4ba 87bd
00000350: 04c4 a1bd 7183 93bd f65e 5ebe cefd d1bc
00000360: 0fd7 f03c bcbe 4abe 8869 69be 7be1 1fbe
00000370: ac3a 1e3d a4b5 98bc ba11 70bd f755 0cbe
00000380: 65ca 31be 1981 f0bc 73d9 ec3b 2118 01be
00000390: 09a4 e0bd 372d 00bd 4d6e 68be 9ecd 10bd
000003a0: 3851 343d 294c 60bc ea48 5a3d 61e5 663d
000003b0: 77b0 1cbe 77ee bebd ca3e e53c b72c dbbd
000003c0: 64c0 07be 64cd b8bd 3580 14be 38ea d33d
000003d0: 4877 c93c 65a4 32bd fe33 cc3a f3d7 a03d
000003e0: c033 aabc 602e 10be c925 0abe 0d2c 42bd
000003f0: 9308 8b3d 4954 943c 3a63 bc3c a7a7 4abe

fc2.bias f4 [10]
1.0846429 0.8583638 -0.1791515 -0.18038714 -0.34910393 -0.24782519 -0.33379602 -0.2943275
-0.1478116 -0.1612068
00000000: 94d5 8a3f bbbd 5b3f 7e73 37be 68b7 38be
00000010: c0bd b2be e3c5 7dbe 50e7 aabe 18b2 96be
00000020: ed5b 17be 6513 25be
