src/model.pkl (torch, 91375 bytes, 8 tensors)

weight f4 [10, 1, 5, 5]
-0.29017434 -0.4180773 -0.3726984 -0.04117671 -0.09130684 0.14677174 -0.0058372784 -0.1276424
-0.125856 0.029338896 0.2016519 0.23517586 0.55342245 0.3886138 0.43544227 -0.33564645
-0.19234723 0.023846965 0.36602163 0.14060509 0.0070529846 -0.086592026 0.111509405 0.28418532
0.42197636 0.11977902 0.091018654 0.18513454 -0.11312973 0.29463258 0.021867083 -0.18474826
-0.14263062 0.22820765 0.3279831 -0.13482796 -0.1677427 -0.2976532 -0.21921054 0.15217508
-0.09435938 0.22628094 0.15626834 -0.19476089 -0.14230424 0.25333995 0.3292265 -0.04851518
0.05566488 0.2713522 -0.075426124 -0.39691716 -0.36758924 -0.31738117 -0.47571605 -0.026830599
0.08713252 0.16450237 -0.07257566 -0.19504823 0.37801528 0.5797806 0.5314164 0.42323196
-0.022023898 0.009768348 -0.06411771 -0.009047724 -0.042721767 -0.060710635 -0.12759928 -0.015650498
0.0052416455 -0.18641767 -0.10034973 0.3453673 -0.0034542745 0.23963167 0.21561837 0.21609513
-0.13544229 0.15677354 0.2144689 0.077010915 -0.14102906 -0.17243962 0.26774135 0.15461415
0.04816774 0.17561252 -0.20915177 0.099401176 -0.06862336 0.0090550445 -0.07203975 0.07792437
-0.2807006 -0.30530664 -0.06711757 -0.27847323 -0.32642618 -0.16009827 -0.07321958 0.15287663
0.067415096 -0.39808753 -0.3994604 -0.3116407 -0.20605911 -0.074097954 -0.480534 -0.122329175
-0.046490215 0.23624614 0.23260589 -0.3569834 -0.2456883 0.22593057 0.39007354 0.58123773
0.008223147 -0.1868352 0.37881696 0.63509685 0.662989 -0.06992787 0.046788055 0.16408095
0.21750695 0.21377596 0.08664599 0.04217991 0.034283407 0.24307093 -0.116923384 0.27346903
0.20738676 0.24341226 0.061459072 -0.13376668 0.1888872 0.0892319 -0.07377865 0.12496079
-0.053040907 0.14287247 -0.077601634 0.14631437 0.012343739 0.22691734 0.0369092 0.25122085
0.29014257 0.2054954 0.22838464 0.0037664007 0.17574048 0.0041850256 0.05985574 -0.35885492
0.117721304 0.3690374 0.058064148 -0.3256342 -0.12075211 -0.18339515 0.14733401 0.011811974
0.18987864 0.026310578 0.18869704 -0.055947695 -0.14865881 -0.16666955 -0.30157578 0.5575779
0.07324162 0.29686543 -0.14825882 -0.0057726917 -0.043323044 -0.2294589 0.06658731 -0.1535106
-0.36820826 0.33691645 0.13067497 -0.16076884 -0.04268877 -0.38147604 -0.01042775 -0.14918076
-0.0813055 -0.4667043 -0.2647399 0.11172339 -0.1622901 -0.049446065 -0.1887018 -0.016746674
0.35676804 0.12197235 0.014566609 0.203922 0.20440571 0.1424667 0.026054803 0.45435867
0.4183476 0.25889656 0.025290554 -0.1558051 -0.21048018 0.008555879 -0.25751093 -0.08719413
-0.15949938 -0.1885851 -0.3819601 -0.3424913 0.009953642 0.12748913 0.045277104 -0.24807262
-0.38778082 0.2633232 -0.04163456 0.18337548 -0.20698538 -0.09497399 -0.39011627 -0.36791068
-0.29097348 -0.08677773 -0.27520308 -0.4508606 -0.32415035 -0.41268143 0.045481075 0.12202878
0.6342849 0.560597 -0.03386451 -0.22371088 -0.01787919 0.57906556 0.53239536 0.08092645
0.16371295 0.010416181
00000000: bb91 94be 3a0e d6be 53d2 bebe e9a8 28bd
00000010: 15ff babd 554b 163e a446 bfbb b0b4 02be
00000020: 65e0 00be 2058 f03c d67d 4e3e f1d1 703e
00000030: 18ad 0d3f 63f8 c63e 4af2 de3e dad9 abbe
00000040: acf6 44be b65a c33c 3067 bb3e c8fa 0f3e
00000050: b91c e73b 2957 b1bd 0b5f e43d bd80 913e
00000060: 490d d83e b44e f53d fd67 ba3d e993 3d3e
00000070: 8fb0 e7bd 15da 963e 9922 b33c a62e 3dbe
00000080: c30d 12be 44af 693e 67ed a73e 5710 0abe
00000090: bec4 2bbe 0066 98be ba78 60be c9d3 1b3e
000000a0: 7e3f c1bd 31b6 673e cf04 203e 666f 47be
000000b0: 34b8 11be c6b5 813e 6090 a83e dab7 46bd
000000c0: db00 643d adee 8a3e 0379 9abd ba38 cbbe
000000d0: a834 bcbe c97f a2be 0e91 f3be d8cb dbbc
000000e0: 8972 b23d 4f73 283e 8ca2 94bd b9ba 47be
000000f0: 388b c13e 806c 143f e80a 083f dcb1 d83e
00000100: 766b b4bc 6c0b 203c 2550 83bd e83c 14bc
00000110: 05fd 2ebd b7ab 78bd 63a9 02be 7935 80bc
00000120: 1cc2 ab3b 46e4 3ebe 2984 cdbd fcd3 b03e
00000130: 1c61 62bb 0162 753e 10cb 5c3e 0b48 5d3e
00000140: 62b1 0abe 3e89 203e bc9d 5b3e e6b7 9d3d
00000150: ec69 10be 0394 30be 6515 893e 2c53 1e3e
00000160: 894b 453d c5d3 333e e22b 56be d892 cb3d
00000170: 678a 8cbd 9c5b 143c 9489 93bd d096 9f3d
00000180: fdb7 8fbe 2751 9cbe f074 89bd 0b94 8ebe
00000190: 5521 a7be cdf0 23be 26f4 95bd b18b 1c3e
000001a0: ed10 8a3d 21d2 cbbe 1386 ccbe 5f8f 9fbe
000001b0: 2901 53be abc0 97bd 8d08 f6be b887 fabd
000001c0: 866c 3ebd 82ea 713e 3d30 6e3e 87c6 b6be
000001d0: b795 7bbe 585a 673e b8b7 c73e ffcb 143f
000001e0: 61ba 063c ba51 3fbe 4cf4 c13e b595 223f
000001f0: a6b9 293f 5836 8fbd d5a4 3f3d d604 283e
00000200: 24ba 5e3e 16e8 5a3e 7473 b13d d7c4 2c3d
00000210: c26c 0c3d 96e7 783e 8775 efbd 2204 8c3e
00000220: 325d 543e 1041 793e 82bc 7b3d 22fa 08be
00000230: a56b 413e 37bf b63d 4319 97bd 71eb ff3d
00000240: 6c41 59bd 294d 123e 9bed 9ebd 6fd3 153e
00000250: 653d 4a3c 055d 683e 1a2e 173d 05a0 803e
00000260: 918d 943e 636d 523e aadd 693e b8d5 763b
00000270: 50f5 333e 8a22 893b 4b2b 753d d5bb b7be
00000280: de17 f13d 78f2 bc3e acd4 6d3d 87b9 a6be
00000290: e24c f7bd f0cb 3bbe bade 163e 0387 413c
000002a0: 8c6f 423e 4889 d73c cc39 413e 6929 65bd
000002b0: 043a 18be 6cab 2abe 2468 9abe 6dbd 0e3f
000002c0: b4ff 953d bffe 973e 29d1 17be d928 bdbb
000002d0: 8173 31bd 46f7 6abe ed5e 883d e231 1dbe
000002e0: cb85 bcbe 5080 ac3e a9cf 053e 96a0 24be
000002f0: 6bda 2ebd d450 c3be 27d9 2abc d7c2 18be
00000300: 7f83 a6bd def3 eebe fd8b 87be 3ccf e43d
00000310: 602f 26be f587 4abd 0b3b 41be 5230 89bc
00000320: 4daa b63e a4cc f93d c9a8 6e3c eed0 503e
00000330: bb4f 513e cae2 113e e270 d53c b3a1 e83e
00000340: a831 d63e 178e 843e 232e cf3c 5f8b 1fbe
00000350: 1e88 57be f52d 0c3c 79d8 83be d692 b2bd
00000360: ce53 23be 741c 41be 4690 c3be 055b afbe
00000370: 9a14 233c 838c 023e 7c74 393d c006 7ebe
00000380: 358b c6be 4cd2 863e 0089 2abd c8c6 3b3e
00000390: faf3 53be b981 c2bd 52bd c7be ca5e bcbe
000003a0: 7afa 94be 86b8 b1bd 6be7 8cbe 33d7 e6be
000003b0: 09f7 a5be fb4a d3be 5d4a 3a3d 3aea f93d
000003c0: 7f60 223f 4983 0f3f 83b5 0abd 7714 65be
000003d0: 6177 92bc a43d 143f 104b 083f c4bc a53d
000003e0: 5ea4 273e a1a8 2a3c

bias f4 [10]
0.14808539 0.039725993 0.07310526 -0.1730852 -0.4012725 -0.28586304 -0.07751187 -0.6861273
-0.22189699 -0.04935438
00000000: b2a3 173e b9b7 223d 36b8 953d 3f3d 31be
00000010: 9773 cdbe a45c 92be 8bbe 9ebd 0aa6 2fbf
00000020: f738 63be d227 4abd

weight f4 [20, 10, 5, 5]
0.08566375 0.07896066 -0.0055799778 0.086865634 -0.026458396 0.06982233 -0.11062941 -0.16427436
0.1204308 0.19496481 0.026333647 -0.03425929 -0.099184066 0.026523806 0.22946456 -0.19001476
-0.12437152 0.025820328 0.019284202 0.12880892 0.03537584 -0.02953242 0.016369399 0.14090833
0.15029341 -0.052017488 -0.013708705 -0.031969644 -0.0595944 0.09883941 0.077755734 -0.012842191
-0.0002077888 0.05475203 0.0506558 -0.059521053 -0.028601682 -0.07977792 -0.035291877 -0.036772538
0.06155935 0.0042824293 0.008948119 -0.0010171634 0.10035378 0.018109292 -0.06832092 -0.09159404
0.004648887 -0.039089408 0.055685245 0.11953441 0.13785529 0.021324784 -0.0902777 -0.14604864
-0.047764637 -0.1021525 -0.057772946 -0.09991538 0.19063854 0.059891902 -0.014063248 0.070338935
0.050864473 -0.084852226 -0.055034693 -0.095241986 -0.077239685 -0.18773502 0.002683089 0.018420119
0.020119352 -0.14788924 -0.13636689 -0.108015254 -0.06409252 -0.05458631 -0.008829837 -0.012073724
-0.13666204 0.050343458 -0.0021652323 -0.03760686 -0.08131981 -0.1477159 -0.13189499 -0.113795914
-0.010157281 0.04829269 -0.015443214 0.004618268 0.04999849 0.09465587 0.20146196 -0.093371555
-0.091604434 -0.020697186 0.033345707 0.08352967 0.039331883 0.004562127 -0.16854061 -0.2864132
-0.2745718 0.28983286 -0.16649842 -0.19800071 -0.21121494 -0.30407017 -0.04715092 -0.17086512
-0.17170765 -0.15763304 -0.037246544 0.085586175 -0.05695289 0.2093265 0.13857202 0.1748522
-0.05388643 -0.07789121 0.017592477 -0.003936779 0.15973933 -0.038561925 -0.099407904 0.03813814
0.08548414 0.066822104 0.10858396 0.05442553 0.073959485 0.11828017 0.10485431 0.018361807
0.036959875 -0.050305247 0.020021813 0.07913372 -0.08947873 -0.01881297 -0.13945979 0.037396777
0.12774134 -0.07384352 -0.100684464 -0.09957358 -0.062487684 0.08330979 -0.12476189 0.0395722
0.097480826 0.14637592 0.1685109 -0.19627693 0.07525513 0.019382855 -0.032036472 -0.082186155
-0.12539276 0.0670182 -0.054920778 -0.11994492 -0.09407551 -0.057611037 0.048329357 -0.016114794
0.05954345 0.06212619 0.011680108 -0.04597301 -0.11097525 -0.105128 0.018559428 -0.09393835
-0.1560511 -0.10129284 -0.008880906 -0.15426242 -0.031408787 -0.021854376 0.009615349 0.102897294
0.038512122 -0.15762064 -0.046963364 0.13323362 -0.044811208 0.035531417 -0.17632191 -0.10561068
0.0037730853 0.088993415 0.056905188 -0.15723647 -0.13603194 0.11345293 0.0980697 0.06626039
-0.03645978 0.040807504 0.09534399 0.16037352 0.24399202 -0.2731481 -0.22295664 -0.03145362
-0.13948414 -0.1263163 -0.07229378 -0.00937415 0.07729487 0.13725966 0.07482123 0.02459921
-0.055470884 -0.09832355 0.15619482 0.27223745 -0.14292301 -0.0376708 -0.045108087 -0.103317715
0.0013600322 -0.23465821 -0.15187937 -0.031822786 -0.096793436 -0.04014073 0.16443954 -0.020960392
-0.12981492 -0.046753693 -0.06548214 -0.19259031 -0.19715907 -0.11795181 -0.09704096 0.042715058
0.11221039 0.027569741 0.07127927 -0.0962479 -0.14216967 0.043400776 -0.022083795 0.093962274
0.069338456 0.058338918 -0.06518666 0.003315465 -0.028946912 0.009336294 -0.05130575 0.041354302
00000000: 7a70 af3d 20b6 a13d 3fd8 b6bb 9ce6 b13d
00000010: 47bf d8bc 02ff 8e3d ac91 e2bd 8a37 28be
00000020: 6ca4 f63d dba4 473e a9b9 d73c 7853 0cbd
00000030: 0421 cbbd 7448 d93c c2f8 6a3e 3b93 42be
00000040: 7fb6 febd 2785 d33c e7f9 9d3c 7ce6 033e
00000050: 42e6 103d f9ed f1bc 1e19 863c 464a 103e
00000060: 84e6 193e 4a10 55bd 7a9a 60bc 9af2 02bd
00000070: 4219 74bd 516c ca3d 663e 9f3d 0e68 52bc
00000080: e2e1 59b9 aa43 603d 757c 4f3d 59cc 73bd
00000090: 134e eabc 9b62 a3bd 378e 10bd cd9e 16bd
000000a0: a825 7c3d 9f53 8c3b 229b 123c 5752 85ba
000000b0: 4886 cd3d f059 943c d7eb 8bbd a895 bbbd
000000c0: b155 983b 371c 20bd 3616 643d 75ce f43d
000000d0: f029 0d3e 50b1 ae3c 84e3 b8bd c68d 15be
000000e0: daa4 43bd 5435 d1bd 53a3 6cbd 6fa0 ccbd
000000f0: c036 433e 3651 753d 8a69 66bc dc0d 903d
00000100: 4457 503d 01c7 adbd 0f6c 61bd 3b0e c3bd
00000110: d72f 9ebd 9c3d 40be c4d6 2f3b cae5 963c
00000120: 57d1 a43c 4770 17be c3a3 0bbe 1a37 ddbd
00000130: f042 83bd e595 5fbd 05ab 10bc ded0 45bc
00000140: 22f1 0bbe f134 4e3d 92e6 0dbb a709 1abd
00000150: 008b a6bd d642 17be 7b0f 07be d50d e9bd
00000160: b96a 26bc 8ece 453d 8905 7dbc d754 973b
00000170: 37cb 4c3d f0da c13d 0b4c 4e3e 9639 bfbd
00000180: 1b9b bbbd 258d a9bc 8295 083d 9b11 ab3d
00000190: 781a 213d e57d 953b e995 2cbe c0a4 92be
000001a0: ad94 8cbe f964 943e 907e 2abe b3c0 4abe
000001b0: bb48 58be 16af 9bbe 5321 41bd 44f7 2ebe
000001c0: 21d4 2fbe 8e6a 21be d58f 18bd ce47 af3d
000001d0: 6f47 69bd b059 563e d3e5 0d3e 750c 333e
000001e0: 04b8 5cbd 6d85 9fbd 191e 903c 1900 81bb
000001f0: b592 233e 1cf3 1dbd 5f96 cbbd bd36 1c3d
00000200: 4f12 af3d 07da 883d 4461 de3d 4eed 5e3d
00000210: 1278 973d e03c f23d dbbd d63d 806b 963c
00000220: 3d63 173d e00c 4ebd c904 a43c dc10 a23d
00000230: a040 b7bd a81d 9abc 8cce 0ebe 5d2d 193d
00000240: a0ce 023e 453b 97bd a833 cebd 3ced cbbd
00000250: 16f3 7fbd 539e aa3d 2983 ffbd 7616 223d
00000260: 07a4 c73d 92e3 153e 1f8e 2c3e d2fc 48be
00000270: 5d1f 9a3d cbc8 9e3c ad38 03bd 3751 a8bd
00000280: f666 00be d740 893d 9cf4 60bd afa5 f5bd
00000290: a9aa c0bd 8df9 6bbd 01f5 453d 2c03 84bc
000002a0: d5e3 733d 0878 7e3d ec5d 3f3c 324e 3cbd
000002b0: fe46 e3bd 594d d7bd f109 983c c062 c0bd
000002c0: dccb 1fbe 9f72 cfbd 3881 11bc f8f6 1dbe
000002d0: 80a6 00bd f307 b3bc b289 1d3c d1bb d23d
000002e0: e3be 1d3d 4e67 21be a85c 40bd 656e 083e
000002f0: f58b 37bd 6489 113d bb8d 34be 6a4a d8bd
00000300: de45 773b 2e42 b63d 6a15 693d 9902 21be
00000310: f54b 0bbe 025a e83d c4d8 c83d 87b3 873d
00000320: da56 15bd c525 273d b643 c33d f538 243e
00000330: 0bd9 793e 11da 8bbe bf4e 64be 83d5 00bd
00000340: eed4 0ebe 0f59 01be c30e 94bd 0996 19bc
00000350: c64c 9e3d cc8d 0c3e df3b 993d 4884 c93c
00000360: 7035 63bd db5d c9bd 89f1 1f3e b562 8b3e
00000370: 695a 12be b24c 1abd 42c3 38bd 3d98 d3bd
00000380: 1c43 b23a 3e4a 70be 4486 1bbe 9c58 02bd
00000390: a33b c6bd 9b6a 24bd d762 283e 21b5 abbc
000003a0: 34ee 04be cd80 3fbd 801b 86bd 6536 45be
000003b0: 11e4 49be b890 f1bd 69bd c6bd fcf5 2e3d
000003c0: 90ce e53d f0d9 e13c defa 913d 9e1d c5bd
000003d0: ed94 11be 03c5 313d 13e9 b4bc 4b6f c03d
000003e0: 5201 8e3d caf4 6e3d 9580 85bd 4648 593b
000003f0: 1322 edbc 41f7 183c fa25 52bd 2163 293d

bias f4 [20]
0.03268033 -0.083959736 0.026536088 0.08178139 -0.09740593 0.021808498 -0.008862317 -0.1906473
0.19712514 0.038250808 -0.21523406 -0.3941314 -0.07048394 -0.14831999 -0.03408121 -0.07874447
-0.20786838 0.12129764 -0.36891937 0.024965452
00000000: cfdb 053d 15f3 abbd 3662 d93c 007d a73d
00000010: c37c c7bd bca7 b23c 4033 11bc 0c39 43be
00000020: 2cdb 493e e1ac 1c3d 5166 5cbe 97cb c9be
00000030: e259 90bd 32e1 17be bd98 0bbd c844 a1bd
00000040: 73db 54be e66a f83d 00e3 bcbe 5984 cc3c

weight f4 [50, 320]
-0.2042494 0.046030793 -0.025030592 -0.031510133 -0.048995 0.045943253 0.08595345 0.19537947
0.007457566 0.03335621 -0.045006733 0.019301005 0.13062894 0.036297664 0.025770346 -0.0152169075
-0.017050635 0.037142552 0.040192936 -0.038558573 -0.016584573 0.04167388 -0.039716166 0.046298783
-0.021439828 -0.008558057 -0.030505963 0.0043268534 -0.033644397 0.0388049 0.020346845 -0.042443056
-0.026242124 -0.051673874 0.021202294 0.058703355 -0.056629237 -0.05921377 0.054337483 0.0005433051
-0.021775447 -0.01679782 0.001188606 -0.021864831 -0.0012991375 -0.01256249 0.03502334 -0.039287638
-0.0074842433 0.14938746 0.098580465 0.007365944 -0.0046368074 0.043626998 -0.06274456 -0.057815436
0.009502005 0.03926762 -0.004761566 -0.07826427 0.037000906 0.045402933 -0.025781646 -0.004003173
-0.20473099 0.07475718 0.084674455 0.05700252 0.007644965 0.016778076 -0.015966387 -0.07043734
-0.08337954 -0.024356198 0.0022031437 -0.089647524 -0.11260322 0.017607287 -0.05045625 -0.02841331
0.039854456 -0.021017231 -0.05911445 -0.019414973 0.0025693362 -0.0045349686 0.0021405553 -0.021997973
-0.050262883 0.050361037 -0.053853445 -0.03475601 -0.04689038 0.021158261 -0.0067674974 0.009551985
-0.06348313 -0.19862664 0.031744394 0.11890482 0.0071850857 -0.0051823524 0.14557602 0.06316322
-0.0074449386 -0.02075771 0.055035647 0.021584338 0.043618992 0.052774515 0.0849907 0.061034832
0.092597924 0.060260896 0.061973095 0.07226137 -0.058651038 0.07729064 0.017307766 -3.5725814e-05
0.0047420305 0.107684225 0.054419354 -0.09770076 0.14247885 0.14513601 0.101659715 0.031009737
0.057122365 0.0971986 0.043426327 0.16695933 0.014182594 0.11346209 -0.028743034 0.061062444
-0.033351745 -0.008432981 -0.09918719 -0.05022632 0.09222062 0.03698225 0.0061877095 -0.017849356
-0.124030076 0.104620926 -0.09936791 -0.049125794 0.028507067 0.15041937 -0.047928732 -0.015233382
0.077804804 0.09890516 -0.017049665 0.006141316 -0.070416346 0.06310899 0.036530957 -0.038777195
0.014242191 0.010176126 -0.09659092 0.047220994 0.04596647 0.0874381 0.02005441 0.003103715
0.08370079 0.03385544 0.070461236 -0.009162891 0.14450076 0.06511084 0.04275799 -0.0124723995
0.110596485 0.047264043 -0.014834509 -0.09527444 0.16395698 -0.0020930518 0.076475106 -0.012536363
-0.065587044 -0.019675842 0.072745875 0.13100074 0.060600147 0.032967314 -0.0264197 0.11922341
0.05810418 0.09951994 0.049629312 -0.0057123695 0.054987825 0.0431515 0.040592693 -0.030693585
-0.053531416 -0.030892996 -0.02268836 0.06207153 -0.050972458 -0.002775434 -0.002634372 0.008979289
0.030819684 0.06009552 -0.053650532 -0.055932373 -0.07154897 -0.030687671 0.012073279 0.042579487
0.01778547 -0.024045018 0.01579662 0.09200651 0.08954661 0.00062215974 0.05088465 0.025008975
-0.08081591 -0.08989577 -0.054755148 -0.053714033 -0.09660072 -0.023298059 -0.01430154 -0.026624803
0.002388596 -0.011607512 0.043797236 0.054257724 -0.015783714 -0.0008152498 0.0035790068 0.051647637
-0.119136766 -0.06002231 -0.003935882 -0.029967085 0.07735586 0.124201335 -0.011528741 0.001831397
-0.08333157 -0.065475486 -0.03321933 0.048781343 0.014088088 0.02860128 0.06398623 0.019248363
00000000: c126 51be c98a 3c3d f50c cdbc c510 01bd
00000010: fbae 48bd fe2e 3c3d 5d08 b03d 8e11 483e
00000020: 995e f43b 85a0 083d fb58 38bd 241d 9e3c
00000030: 98c3 053e dcac 143d 551c d33c 5650 79bc
00000040: c6ad 8bbc ca22 183d 59a1 243d 98ef 1dbd
00000050: 5fdc 87bc 3bb2 2a3d 6bad 22bd cba3 3d3d
00000060: 94a2 afbc 1837 0cbc a4e7 f9bc 47c8 8d3b
00000070: b5ce 09bd e3f1 1e3d 6dae a63c c5d8 2dbd
00000080: b9f9 d6bc fca7 53bd 6fb0 ad3c ee72 703d
00000090: 0ff4 67bd 238a 72bd fb90 5e3d 976c 0e3a
000000a0: 6c62 b2bc 959b 89bc 00cb 9b3a e01d b3bc
000000b0: d247 aaba e7d2 4dbc a274 0f3d 13ec 20bd
000000c0: 623e f5bb 07f9 183e 8ee4 c93d 045e f13b
000000d0: 5cf0 97bb 39b2 323d 3880 80bd e1cf 6cbd
000000e0: 4cae 1b3c 15d7 203d e906 9cbb 0549 a0bd
000000f0: 438e 173d 6df8 393d 0834 d3bc 0d2d 83bb
00000100: 00a5 51be 4b1a 993d cd69 ad3d 797b 693d
00000110: 9d82 fa3b 2d72 893c f1cb 82bc 7441 90bd
00000120: e4c2 aabd a686 c7bc 9e62 103b 1f99 b7bd
00000130: 849c e6bd 283d 903c 36ab 4ebd 08c3 e8bc
00000140: 6d3e 233d 542c acbc fe21 72bd 260c 9fbc
00000150: 4f62 283b 139a 94bb 8f48 0c3b 1835 b4bc
00000160: 74e0 4dbd 6047 4e3d 6e95 5cbd 515c 0ebd
00000170: 2110 40bd 1754 ad3c e2c1 ddbb ee7f 1c3c
00000180: 7103 82bd c864 4bbe 6906 023d 5f84 f33d
00000190: de70 eb3b b9d0 a9bb e111 153e b85b 813d
000001a0: acf4 f3bb 130c aabc 0f6d 613d a3d1 b03c
000001b0: d4a9 323d 172a 583d 9b0f ae3d a9ff 793d
000001c0: fba3 bd3d 21d4 763d 80d7 7d3d c5fd 933d
000001d0: 123c 70bd 8e4a 9e3d 04c9 8d3c 4dd8 15b8
000001e0: 0963 9b3b 8c89 dc3d d4e6 5e3d 5617 c8bd
000001f0: fae5 113e 899e 143e f832 d03d 2208 fe3c
00000200: 24f9 693d 0f10 c73d cedf 313d 63f7 2a3e
00000210: 1c5e 683c d05e e83d 8376 ebbc 9d1c 7a3d
00000220: d79b 08bd 7c2a 0abc a722 cbbd 1dba 4dbd
00000230: 2ade bc3d b37a 173d 45c2 ca3b d038 92bc
00000240: 7b03 febd 7f43 d63d 6781 cbbd 2138 49bd
00000250: a787 e93c 8907 1a3e eb50 44bd 6f95 79bc
00000260: 2058 9f3d ca8e ca3d bdab 8bbc 183d c93b
00000270: 7236 90bd 493f 813d 7ca1 153d d6d4 1ebd
00000280: 1458 693c c4b9 263c 76d1 c5bd cd6a 413d
00000290: 5647 3c3d bf12 b33d 2549 a43c b267 4b3b
000002a0: 526b ab3d 00ac 0a3d fb4d 903d f31f 16bc
000002b0: 02f8 133e d558 853d 0123 2f3d 0959 4cbc
000002c0: 6980 e23d f197 413d 710c 73bc 3f1f c3bd
000002d0: 57e4 273e 952b 09bb fb9e 9c3d 5165 4dbc
000002e0: 8052 86bd 3b2f a1bc cafb 943d 0f25 063e
000002f0: dc37 783d bc08 073d 206e d8bc 672b f43d
00000300: a6fe 6d3d 1cd1 cb3d 1b48 4b3d d42e bbbb
00000310: ea3a 613d a1bf 303d 8644 263d 1d71 fbbc
00000320: c243 5bbd 4f13 fdbc f1dc b9bc b73e 7e3d
00000330: 7fc8 50bd 0ee4 35bb 6ea5 2cbb de1d 133c
00000340: 9079 fc3c b826 763d a9c0 5bbd 5819 65bd
00000350: 4488 92bd b664 fbbc 01cf 453c d467 2e3d
00000360: d5b2 913c 0ffa c4bc ea67 813c e96d bc3d
00000370: 3764 b73d 6f18 233a 6c6c 503d 9fdf cc3c
00000380: d082 a5bd 461b b8bd ef46 60bd 3f03 5cbd
00000390: 99d6 c5bd 92db bebc 0251 6abc 421c dabc
000003a0: fe89 1c3b 6f2d 3ebc bb64 333d 593d 5e3d
000003b0: d94c 81bc 7db6 55ba c58d 6a3b 798c 533d
000003c0: fafd f3bd f4d9 75bd 92f8 80bb 887d f5bc
000003d0: c06c 9e3d 455d fe3d 0be3 3cbc 7c0b f03a
000003e0: bea9 aabd 0318 86bd fe10 08bd f2ce 473d
000003f0: b9d1 663c 3b4d ea3c 360b 833d beae 9d3c

bias f4 [50]
0.11061138 0.14499147 0.07708878 0.011810819 0.33969644 -0.036239654 0.075595304 0.006129507
0.11586548 -0.072192825 0.10058244 0.08874432 0.38164893 -0.010212016 0.16924053 -0.07332723
0.11323325 -0.07795222 0.16198179 -0.020894699 0.0028873896 -0.06649232 0.07251696 0.10953296
-0.034517433 0.3591589 0.096589 0.42829704 0.030424412 0.03181972 0.13931957 0.17139702
0.22251634 0.004088864 0.30439523 0.4422409 0.37896523 0.32941923 0.09529811 -0.07770571
0.2081881 0.21922669 -0.0681678 0.38422048 0.35423255 0.0690412 0.028172908 0.09049863
0.07024113 0.062106278
00000000: 3888 e23d a578 143e b9e0 9d3d 2a82 413c
00000010: b1ec ad3e 0870 14bd b6d1 9a3d 08da c83b
00000020: e14a ed3d d5d9 93bd 2bfe cd3d 95bf b53d
00000030: 7d67 c33e 4d50 27bc 644d 2d3e 962c 96bd
00000040: d6e6 e73d 6aa5 9fbd 8ede 253e 5c2b abbc
00000050: 5c3a 3d3b 202d 88bd c683 943d d152 e03d
00000060: 2762 0dbd ade3 b73e 74d0 c53d c049 db3e
00000070: 9e3c f93c 6555 023d caa9 0e3e b382 2f3e
00000080: 53db 633e e1fb 853b b1d9 9b3e 666d e23e
00000090: bb07 c23e a3a9 a83e a82b c33d 2c24 9fbd
000000a0: 432f 553e f67c 603e 8f9b 8bbd 8cb8 c43e
000000b0: f85d b53e 7965 8d3d dfca e63c 5957 b93d
000000c0: 95da 8f3d 2763 7e3d

weight f4 [10, 50]
-0.0793851 0.236605 0.37923232 0.07606471 0.58402133 -0.13468388 0.27147362 0.09574267
-0.15692338 -0.14345175 -0.19296294 -0.34507695 0.6291891 -0.3272706 0.48404062 -0.108272314
0.473762 -0.13481778 0.47031173 -0.08310351 -0.28177443 -0.007988557 -0.109450795 -0.3291405
0.048723232 0.532574 0.5044192 0.5836404 -0.18042101 0.08665998 0.5720531 0.54529375
0.38747054 0.060959034 0.5258216 0.5616602 0.5826732 0.5115854 0.32145774 -0.027895626
-0.11242852 0.032724198 -0.008763596 0.5321546 0.59713286 0.45819095 0.088477515 0.37730896
-0.20625854 -0.063987955 0.6173084 0.49383602 -0.32321405 -0.21992712 0.6476624 0.015975513
-0.18674731 -0.12977964 0.57258743 -0.02039796 0.23773271 0.3223131 0.6325914 0.41353536
-0.124073006 0.038238935 -0.25386584 -0.039377775 -0.18293303 -0.062254157 0.28645393 -0.11765504
0.4576853 0.4599229 -0.09358692 0.63205636 -0.0074442043 0.5841324 0.28369102 -0.12929904
-0.1792429 -0.12142398 0.526301 -0.1531994 0.55679727 0.5931387 0.59985584 0.563262
-0.20434421 -0.019186692 0.63182616 0.73154616 0.083608404 0.6406991 0.5260911 -0.17836128
-0.049897417 -0.27673364 0.44498682 0.14400658 0.058245603 0.015028865 -0.12910676 0.004625494
-0.16954052 0.11413119 -0.03805526 -0.005659163 0.033600233 0.04024717 -0.03355839 -0.11338465
-0.025035998 -0.057283286 -0.026802683 -0.14185347 0.032764904 -0.025763176 0.08899657 0.1118201
0.05568151 -0.04002369 -0.012051926 0.096656136 -0.051512364 -0.14974238 -0.028671058 -0.14037067
0.11363752 0.12481871 -0.14343762 -0.08127068 -0.039559323 -0.055983 -0.24734463 -0.22042751
-0.11511945 -0.2259992 -0.04365774 -0.022262678 -0.04954053 -0.17604041 0.05841686 -0.06334754
-0.23449853 0.0049484307 0.09021466 0.07547938 -0.025492625 0.04657501 -0.09871964 -0.1712776
-0.12745257 -0.1368777 -0.12033372 0.014098993 0.0019811033 -0.108244926 0.0676408 -0.075263806
-0.1394318 -0.02586152 -0.0030513771 0.0012183884 -0.044391077 -0.06799546 0.09022515 -0.028210163
-0.14283895 0.111541286 -0.12179988 0.13131182 -0.007720227 0.008962918 0.0020421064 -0.15506655
0.010575554 -0.2402349 -0.098240204 0.08253381 0.036704894 0.016567083 -0.13095267 -0.011587917
-0.24660107 -0.015118047 -0.094288774 -0.04269755 0.09480403 -0.07247989 -0.18609431 0.0031172598
0.11429668 -0.17440385 -0.1479929 -0.07902315 -0.07298878 -0.004236383 -0.056407195 0.07864976
0.016733915 0.02474001 -0.15549472 -0.13788801 -0.050907444 0.036011294 0.11766137 -0.13799062
-0.03981932 0.06496023 -0.09698845 -0.14655095 -0.051158644 -0.10911577 -0.068884306 0.12533231
-0.15251781 -0.040296488 -0.011297493 0.09442774 -0.14776754 -0.025328092 -0.19372012 -0.12156925
0.037108045 -0.1291686 -0.07073102 -0.114602365 -0.0059367665 0.13219795 0.04266479 -0.034396626
-0.137861 -0.094758585 -0.16021624 -0.1398274 -0.04577767 -0.15316589 -0.017421095 0.0767497
0.0056088585 -0.20829216 0.025567355 -0.21864507 -0.102629416 -0.034760565 0.07887954 -0.12701918
-0.1277012 0.025438184 0.035971407 -0.041098334 0.080059424 -0.028641948 -0.18366168 -0.035808843
00000000: a894 a2bd 9548 723e bd2a c23e d1c7 9b3d
00000010: 6c82 153f 92ea 09be 97fe 8a3e bc14 c43d
00000020: 86b0 20be 04e5 12be 1498 45be edad b0be
00000030: 8912 213f 0390 a7be 2cd4 f73e e0bd ddbd
00000040: ef90 f23e ac0d 0abe b3cc f03e 2c32 aabd
00000050: bd44 90be 70e2 02bc bd27 e0bd 1b85 a8be
00000060: 0392 473d c556 083f 9e21 013f 7569 153f
00000070: 49c0 38be ca7a b13d 1272 123f 5f98 0b3f
00000080: 8a62 c63e 2eb0 793d 3f9c 063f f6c8 0f3f
00000090: 122a 153f 43f7 023f 1c96 a43e 5e85 e4bc
000000a0: ed40 e6bd cf09 063d 3095 0fbc 493b 083f
000000b0: b3dd 183f 0198 ea3e b333 b53d a42e c13e
000000c0: 7035 53be 1e0c 83bd ec07 1e3f 13d8 fc3e
000000d0: 507c a5be 9334 61be 34cd 253f 14df 823c
000000e0: b03a 3fbe f4e4 04be 1795 123f 9f19 a7bc
000000f0: 3470 733e 3906 a53e 83f1 213f e8ba d33e
00000100: fd19 febd 6ea0 1c3d b4fa 81be 974a 21bd
00000110: cc52 3bbe 37fe 7ebd 17aa 923e 20f5 f0bd
00000120: ba55 ea3e 047b eb3e 80aa bfbd 72ce 213f
00000130: 83ee f3bb b389 153f f33f 913e f866 04be
00000140: 738b 37be 23ad f8bd aabb 063f 4ee0 1cbe
00000150: 448a 0e3f f0d7 173f 2790 193f f031 103f
00000160: 9c3f 51be 692d 9dbc 5cbf 213f 9c46 3b3f
00000170: e23a ab3d db04 243f e8ad 063f 57a4 36be
00000180: 3c61 4cbd 08b0 8dbe 50d5 e33e 7676 133e
00000190: f192 6e3d a13b 763c 9034 04be 7591 973b
000001a0: 089c 2dbe 9dbd e93d d5df 1bbd 8070 b9bb
000001b0: 66a0 093d 37da 243d 8674 09bd 3636 e8bd
000001c0: 4b18 cdbc e1a1 6abd 4d91 dbbc 0942 11be
000001d0: 7e34 063d 4c0d d3bc d543 b63d f001 e53d
000001e0: 4c12 643d e1ef 23bd 7175 45bc a7f3 c53d
000001f0: a1fe 52bd 1156 19be 91df eabc 54bd 0fbe
00000200: caba e83d f4a0 ff3d 50e1 12be 3e71 a6bd
00000210: f508 22bd 6e4e 65bd e947 7dbe c0b7 61be
00000220: bfc3 ebbd 566c 67be 75d2 32bd 3860 b6bc
00000230: 03eb 4abd f043 34be 8446 6f3d 5bbc 81bd
00000240: 6220 70be 7226 a23b 77c2 b83d ef94 9a3d
00000250: e9d5 d0bc 70c5 3e3d 862d cabd 6563 2fbe
00000260: ed82 02be ab29 0cbe 8771 f6bd 76ff 663c
00000270: 66d5 013b 84af ddbd 4287 8a3d e923 9abd
00000280: 36c7 0ebe 8adb d3bc 9df9 47bb 55b2 9f3a
00000290: 6bd3 35bd 3441 8bbd f7c7 b83d 0019 e7bc
000002a0: 6044 12be c26f e43d 3772 f9bd 9b76 063e
000002b0: f5f9 fcbb 34d9 123c dcd4 053b c4c9 1ebe
000002c0: 1745 2d3c 2300 76be 2932 c9bd 7c07 a93d
000002d0: df57 163d b1b7 873c 7518 06be 3fdb 3dbc
000002e0: fe84 7cbe afb1 77bc 791a c1bd a0e3 2ebd
000002f0: 9e28 c23d 5670 94bd 828f 3ebe f14a 4c3b
00000300: 6114 ea3d ec96 32be 738b 17be e4d6 a1bd
00000310: 247b 95bd 5bd1 8abb 3b0b 67bd 2013 a13d
00000320: 9015 893c 90ab ca3c 023a 1fbe 8432 0dbe
00000330: 5384 50bd 9480 133d 72f8 f03d 6a4d 0dbe
00000340: 9519 23bd de09 853d e1a1 c6bd 7411 16be
00000350: ba8b 51bd 1778 dfbd 3713 8dbd 1d57 003e
00000360: a12d 1cbe ee0d 25bd 1f19 39bc 5563 c13d
00000370: 6050 17be dc7c cfbc 915e 46be 4df9 f8bd
00000380: 9bfe 173d c644 04be 6ddb 90bd a5b4 eabd
00000390: 3589 c2bb e65e 073e 46c1 2e3d 7ae3 0cbd
000003a0: 6f2b 0dbe ca10 c2bd ba0f 24be ea2e 0fbe
000003b0: 5e81 3bbd 85d7 1cbe afb6 8ebc f22e 9d3d
000003c0: 84ca b73b 8a4a 55be a172 d13c 7ee4 5fbe
000003d0: 5f2f d2bd 1861 0ebd 998b a13d 5111 02be
000003e0: 1ac4 02be bd63 d03c c156 133d ba56 28bd
000003f0: 32f6 a33d 85a2 eabc cf11 3cbe 4bac 12bd

bias f4 [10]
0.9783783 1.1923888 -0.23739715 -0.3916017 -0.24584389 -0.2961893 -0.34372845 -0.3112704
-0.26803648 -0.2873631
00000000: 0077 7a3f 32a0 983f 3d18 73be 0580 c8be
00000010: 80be 7bbe 20a6 97be 2dfd afbe d55e 9fbe
00000020: 143c 89be 4221 93be
